senthamil.pt (torch, 3036 bytes, 6 tensors)

fc1.weight f4 [8, 4]
0.12120283 -0.43858066 -0.4619603 -0.043777205 -0.3870318 0.07934177 0.14807653 -0.4770878
0.3720008 0.08959428 0.5770315 -0.04694816 0.76331216 0.6490887 -0.4407696 -1.3607495
0.3509327 -0.6458048 0.8175636 0.94950527 0.47223118 0.94461465 -0.7487639 -1.153326
0.16464484 -0.111353755 -0.42134798 -0.3553493 -0.31912696 0.14395738 -0.3496034 0.22803837
00000000: 3039 f83d a58d e0be 0f86 ecbe ba4f 33bd
00000010: 0829 c6be f07d a23d 60a1 173e da44 f4be
00000020: e476 be3e 357d b73d 56b8 133f b74c 40bd
00000030: 6d68 433f ad2a 263f 8eac e1be 0a2d aebf
00000040: 73ad b33e 7753 25bf d94b 513f c712 733f
00000050: 49c8 f13e 44d2 713f feae 3fbf 30a0 93bf
00000060: a898 283e 700d e4bd ecba d7be 58f0 b5be
00000070: 9c64 a3be 9069 133e 38ff b2be e482 693e

fc1.bias f4 [8]
0.1859279 -0.20286602 0.6705642 0.774234 -0.16367935 0.7040101 -0.31223232 0.3780589
00000000: e263 3e3e 1cbc 4fbe 18aa 2b3f 3334 463f
00000010: 8f9b 27be 023a 343f eadc 9fbe f090 c13e

fc2.weight f4 [9, 8]
-0.2174119 0.08211542 0.10377282 -0.35320014 -0.41845372 0.10016554 -0.3494075 -0.263886
0.17287815 -0.118529834 0.83472234 -0.094088495 0.5682009 -0.6715609 0.06991243 -0.32654905
-0.35453242 -0.2716259 0.13476144 -0.5668229 0.6431197 -0.7773631 0.30476496 -0.21013083
-0.07368599 -0.060686782 0.17709714 -0.041766234 -0.13243046 -0.11844292 -0.30017546 -0.11276427
0.12669122 -0.19118746 0.117526345 -0.7309347 0.80551517 -0.3095634 -0.20340693 0.011390438
-0.019687466 0.062685594 -0.22976097 -0.22057456 -0.051930565 -0.2718181 0.039374597 -0.1807519
-0.25719464 -0.017445719 0.31908336 0.076136746 0.7925971 -0.577766 -0.11047747 -0.062431537
-0.12987089 -0.34292972 0.62724024 0.5161833 -0.18595208 0.9157408 -0.35234165 0.31245807
-0.337548 -0.20817648 0.12271699 -0.16029732 -0.17696401 -0.31101623 0.10800252 0.2850211
00000000: 3aa1 5ebe 212c a83d d886 d43d a6d6 b4be
00000010: 913f d6be 9723 cd3d 8ae5 b2be 111c 87be
00000020: f806 313e c5bf f2bd 5db0 553f 78b1 c0bd
00000030: 9d75 113f 6aeb 2bbf 402e 8f3d 7031 a7be
00000040: 4685 b5be 8d12 8bbe e7fe 093e 4e1b 11bf
00000050: 7ea3 243f 4501 47bf 270a 9c3e 892c 57be
00000060: aee8 96bd b492 78bd f458 353e 1213 2bbd
00000070: da9b 07be 3492 f2bd 99b0 99be f4f0 e6bd
00000080: 58bb 013e a5c6 43be a7b1 f03d 891e 3bbf
00000090: 3e36 4e3f 187f 9ebe e849 50be f69e 3a3c
000000a0: 9c47 a1bc 4e61 803d 7646 6bbe 4cde 61be
000000b0: 25b5 54bd be2b 8bbe 4247 213d 0717 39be
000000c0: 04af 83be 53ea 8ebc e55e a33e 95ed 9b3d
000000d0: a5e7 4a3f 79e8 13bf 0342 e2bd 36b8 7fbd
000000e0: e0fc 04be 7c94 afbe d192 203f 9724 043f
000000f0: 396a 3ebe fd6d 6a3f 2066 b4be 81fa 9f3e
00000100: 17d3 acbe 372c 55be 0c53 fb3d fb24 24be
00000110: 0e36 35be 853d 9fbe 6d30 dd3d 49ee 913e

fc2.bias f4 [9]
0.018041652 0.5100828 -0.6752715 -0.44346106 -0.5684042 -0.03585626 0.01609675 0.47855487
-0.02870354
00000000: 16cc 933c c994 023f 98de 2cbf 540d e3be
00000010: f082 11bf 04de 12bd 55dd 833c 2505 f53e
00000020: b023 ebbc

out.weight f4 [3, 9]
-0.1387663 -0.5268768 -0.1569554 -0.03739964 -0.73666316 0.22666268 -0.5421034 0.6343713
0.290221 0.09919246 0.50846833 -0.9521253 -0.13457692 -0.59245515 0.2718482 0.37713748
0.09059368 0.20540492 -0.19344804 0.24978259 0.63167673 -0.03728076 0.6953901 -0.32192153
0.7714823 -1.0043851 -0.087775744
00000000: c118 0ebe 66e1 06bf ebb8 20be 5d30 19bd
00000010: f595 3cbf 431a 683e 4ac7 0abf 2866 223f
00000020: d997 943e 6b25 cb3d fb2a 023f 7cbe 73bf
00000030: 88ce 09be 24ab 17bf b02f 8b3e 2a18 c13e
00000040: 2e89 b93d ab55 523e 3e17 46be 02c7 7f3e
00000050: 91b5 213f b6b3 18bd 1605 323f e6d2 a4be
00000060: dd7f 453f b18f 80bf c5c3 b3bd

out.bias f4 [3]
0.5717902 -0.2766675 -0.6040026
00000000: d860 123f 5da7 8dbe ea9f 1abf
